Model: "sequential"
+--------------------------------------------------------------------------+
| Layer (type)                    | Output Shape           |       Param # |
|---------------------------------+------------------------+---------------|
| conv2d (Conv2D)                 | (None, 28, 28, 32)     |           320 |
|---------------------------------+------------------------+---------------|
| batch_normalization             | (None, 28, 28, 32)     |           128 |
| (BatchNormalization)            |                        |               |
|---------------------------------+------------------------+---------------|
| conv2d_1 (Conv2D)               | (None, 28, 28, 32)     |         9,248 |
|---------------------------------+------------------------+---------------|
| max_pooling2d (MaxPooling2D)    | (None, 14, 14, 32)     |             0 |
|---------------------------------+------------------------+---------------|
| dropout (Dropout)               | (None, 14, 14, 32)     |             0 |
|---------------------------------+------------------------+---------------|
| conv2d_2 (Conv2D)               | (None, 14, 14, 64)     |        18,496 |
|---------------------------------+------------------------+---------------|
| batch_normalization_1           | (None, 14, 14, 64)     |           256 |
| (BatchNormalization)            |                        |               |
|---------------------------------+------------------------+---------------|
| conv2d_3 (Conv2D)               | (None, 14, 14, 64)     |        36,928 |
|---------------------------------+------------------------+---------------|
| max_pooling2d_1 (MaxPooling2D)  | (None, 7, 7, 64)       |             0 |
|---------------------------------+------------------------+---------------|
| dropout_1 (Dropout)             | (None, 7, 7, 64)       |             0 |
|---------------------------------+------------------------+---------------|
| conv2d_4 (Conv2D)               | (None, 7, 7, 128)      |        73,856 |
|---------------------------------+------------------------+---------------|
| batch_normalization_2           | (None, 7, 7, 128)      |           512 |
| (BatchNormalization)            |                        |               |
|---------------------------------+------------------------+---------------|
| conv2d_5 (Conv2D)               | (None, 7, 7, 128)      |       147,584 |
|---------------------------------+------------------------+---------------|
| max_pooling2d_2 (MaxPooling2D)  | (None, 3, 3, 128)      |             0 |
|---------------------------------+------------------------+---------------|
| dropout_2 (Dropout)             | (None, 3, 3, 128)      |             0 |
|---------------------------------+------------------------+---------------|
| global_average_pooling2d        | (None, 128)            |             0 |
| (GlobalAveragePooling2D)        |                        |               |
|---------------------------------+------------------------+---------------|
| dropout_3 (Dropout)             | (None, 128)            |             0 |
|---------------------------------+------------------------+---------------|
| dense (Dense)                   | (None, 512)            |        66,048 |
|---------------------------------+------------------------+---------------|
| batch_normalization_3           | (None, 512)            |         2,048 |
| (BatchNormalization)            |                        |               |
|---------------------------------+------------------------+---------------|
| dropout_4 (Dropout)             | (None, 512)            |             0 |
|---------------------------------+------------------------+---------------|
| dense_1 (Dense)                 | (None, 256)            |       131,328 |
|---------------------------------+------------------------+---------------|
| dropout_5 (Dropout)             | (None, 256)            |             0 |
|---------------------------------+------------------------+---------------|
| dense_2 (Dense)                 | (None, 26)             |         6,682 |
+--------------------------------------------------------------------------+
 Total params: 493,434 (1.88 MB)
 Trainable params: 491,962 (1.88 MB)
 Non-trainable params: 1,472 (5.75 KB)

